result/train/best_model.pth (torch, 169228 bytes, 44 tensors)

conv1.bias f4 [16]
00000000: 6455 a33b 3f3c baba 943a e43a 0c96 883b
00000010: cad1 49ba 621d 00bc 08a8 7cba 6446 83bc
00000020: bf35 b83b 8348 b4bb 4aa2 863a 75f9 57b9
00000030: cf07 78bb e317 23b9 02e8 40bb 330c e9bb
0.0049845446 -0.0014208629 0.0017412477 0.0041682776 -0.00076988025 -0.007819505 -0.0009638076 -0.016024776
0.0056216414 -0.005501808 0.0010271755 -0.00020596928 -0.003784645 -0.0001555379 -0.0029435162 -0.00711205

conv1.lin.weight f4 [16, 3]
00000000: aa56 ddbe bd37 ff3e 6e60 f4be c452 f1be
00000010: 5465 9c3e 0bcf c83e dac7 c93e ed0c 203e
00000020: 1c63 be3e 2a60 07bf c254 ccbe cbac 023f
00000030: b3dd b9bd 3ccd d4be 9f0e cfbc 71ee a63d
00000040: 0124 92be ae29 98be 02c2 35bd d1dc 8abe
00000050: 65ff d93e 2331 253d f453 a23d 8f83 403d
00000060: bd59 b4bd dd7d 66bd 8855 163c 53c1 f6be
00000070: 5c69 e83c f885 7d3c 5943 0ebf 936b 983e
00000080: 54b7 ebbe 7bd9 eabe 607f e2be 5d03 c13d
00000090: 9c54 a83e f44e d9bd cc95 983e ae5e ab3e
000000a0: e471 e9be 0395 83be d94f e13e 694a debe
000000b0: bdbd 1d3e f659 30bd 16b5 4c3e 599d 05bf
-0.43230182 0.49847212 -0.4772982 -0.47133458 0.30546057 0.3922046 0.39410287 0.15629931
0.3718499 -0.5288111 -0.39908415 0.5104491 -0.09075489 -0.4156283 -0.025275527 0.08150948
-0.28543094 -0.297193 -0.044374473 -0.27121595 0.42577663 0.040330064 0.07926169 0.047000464
-0.08806179 -0.056272376 0.009175666 -0.4819437 0.028370552 0.015473835 -0.55571514 0.29769573
-0.46038306 -0.4586905 -0.44237804 0.094244696 0.32877052 -0.10610762 0.29801786 0.33470672
-0.45594704 -0.25699624 0.4400623 -0.43416145 0.1540441 -0.043054543 0.19990954 -0.5219322

bn1.weight f4 [16]
00000000: cf1f 7a3f b377 823f 6432 7f3f cd03 803f
00000010: 2b0f 7c3f 421c 7c3f 6648 7d3f f65e 823f
00000020: c682 823f 0095 813f b3fe 7f3f a740 7c3f
00000030: 1210 813f eb4c 823f be6f 803f 22a6 773f
0.97704786 1.0192779 0.99686265 1.000116 0.98460644 0.9848062 0.98938596 1.018523
1.0196159 1.0123596 0.99998015 0.9853615 1.0083029 1.0179724 1.0034101 0.96737874

bn1.bias f4 [16]
00000000: 78a5 2ebd 64de 393c bf0c 873c 9af4 00bd
00000010: cf42 a83c 75d5 10bd fcc6 8bbc 6fc4 823c
00000020: d3a5 c03c e7cd b53c 3fe6 be3b ee43 80bd
00000030: 7be3 373b a7da ad3b 7607 7f3b 28ad 35bd
-0.042638272 0.011344526 0.01648557 -0.03148327 0.02053967 -0.03535982 -0.017062657 0.015962807
0.023516571 0.022192908 0.0058257873 -0.062629566 0.0028059173 0.0053056064 0.003891436 -0.044354588

bn1.running_mean f4 [16]
00000000: 1278 86c2 c2cb 5542 e1f6 4e42 cf61 8d42
00000010: a4df 43c0 44ed 22c2 b533 6d42 bcf7 cd40
00000020: addc a03f 9cbc cb3f bf87 81c2 7357 5241
00000030: ac1a 2742 3ea9 0ac2 61f6 b241 c343 91c2
-67.23451 53.448982 51.741093 70.69103 -3.060525 -40.731705 59.300495 6.436491
1.2567345 1.5916934 -64.76513 13.14635 41.776047 -34.665276 22.370302 -72.63235

bn1.running_var f4 [16]
00000000: 50df b444 02a4 9244 6e08 2544 995f bc44
00000010: 1483 1644 7404 b543 6dc6 8f43 fb5f e141
00000020: 5baa 0f42 5c69 4144 6dff a744 5d4d a644
00000030: 83a3 cf43 b6c3 8e44 65d6 9c44 bcbd 5743
1446.9785 1173.1252 660.1317 1506.9874 602.0481 362.0348 287.5502 28.171865
35.916363 773.64624 1343.982 1330.4176 415.27744 1142.116 1254.6998 215.74115

conv2.bias f4 [32]
00000000: 7550 09bc 801a 7bbc 840a cb3a fa45 33bd
00000010: 5f1f 2ebc 3c9b 763c 0f02 6dbb 105f 093b
00000020: 87ba 95bc f785 243c f06c 893a 97b2 82bc
00000030: e989 1abc a656 d83c 122c 903c b7bd b8bb
00000040: d464 86ba 4eba f23b 07f2 c8bb 6707 cabb
00000050: 2de8 1d3d 7f79 c13a b090 7fba 50a6 68bb
00000060: 8743 9d3c 9f2c fd3c 4aa2 a6bc 0612 d8bc
00000070: 58e4 3abc 127a 393c 1287 b3b9 ccb6 2f3c
-0.008380999 -0.015326142 0.0015490805 -0.043767907 -0.010627597 0.015051659 -0.0036164557 0.0020961203
-0.01827742 0.010041705 0.0010484736 -0.015954299 -0.009432294 0.026408505 0.01759914 -0.00563785
-0.0010253438 0.007407463 -0.0061323675 -0.006165433 0.0385515 0.001476094 -0.0009749038 -0.003549952
0.019197239 0.030905066 -0.020341057 -0.026375782 -0.01140698 0.011320608 -0.00034242176 0.0107247345

conv2.lin.weight f4 [32, 16]
00000000: 8ef4 823e a7aa 0bbe 4e0a 8bbe 64e6 a13d
00000010: 26c5 9b3e f0b8 193d d8ef 923e cff5 82be
00000020: 024e c0bd 51d1 6bbb c24b 9c3e ce1e a83d
00000030: 9186 a63e 988c 373e 4679 c5bd e692 e3bc
00000040: 27c1 eebd 7e12 e63c c943 ae3d a748 99be
00000050: a231 623e df8a 44bd cd8e 61be c6b6 9b3e
00000060: bd2c 86be 1b79 633c 06bf 8abd d379 9ebe
00000070: c07b a3be b28a 38be 0471 83be 9046 153d
00000080: 2f42 c83d 2370 9cba 30cf 0dbe 7f22 a33e
00000090: 5b18 0dbe 325e 4fbe 3fd9 6e3c d6cd 093e
000000a0: 42a4 903e 1715 1c3e 600f 8d3d 04c1 27be
000000b0: cdab babd a437 c9bd 11a5 5e3e 609e bcbd
000000c0: 7c5d 8a3e ff00 7fbe 6d3e 0b3e 5693 293d
000000d0: eecd 393e a9b0 a93e 4a1b 77be 63a2 893e
000000e0: b2c2 993d 5ba9 ac3e c7f4 91be d9ff 53bd
000000f0: 0253 0bbc f13f b43e 3d46 983e fe41 ad3e
00000100: 06cc 193e 4d1a 0fbd be39 f93d 4c90 0fbe
00000110: 1dea 433e 0133 aa3e ac00 67be d017 a3be
00000120: 3709 46be 5bfe 34bc e768 163e b478 d33c
00000130: 1490 b1be 4b1b 8cbe 8d2b 99be 0f07 4f3e
00000140: 9070 893e ccc8 7d3d 78ec 9cbe 8003 403e
00000150: 5750 923e 8d5a 3cbe 370d 69be df0a a2be
00000160: c5c0 a8be e9ec 9d3d 31d4 62bd 1cda 29be
00000170: 00b8 dabd 3f21 90be 6688 68bd 9a70 5ebb
00000180: 5963 e5bd 5bf0 54bd 471e a43e be11 af3e
00000190: 30fd 953e 7af9 a2be 3735 84be 3ce4 b4be
000001a0: 341b 843e 4a65 f4bd 90ab a2be 39a8 9d3e
000001b0: 8735 e33d 49d8 20be 24ed 8d3e e8d0 6dbd
000001c0: 18bc 83be 3be5 973e 0a77 dabc 5bab 93bc
000001d0: f7a8 933e 02d7 b33e e054 95be c4d9 663e
000001e0: 0cd8 4dbe 9922 81be a83e 64be 1e87 c4bd
000001f0: f738 a3be f89a 67be c68b 633e 2ebd 083e
00000200: 81d0 453e 0d33 98be 193c 963e 948c c33d
00000210: 5888 ae3d 6a90 843c 42f9 adbd 6bb2 1a3e
00000220: 0207 a43e 5cf5 8abd 8969 633c 3cd1 f0bc
00000230: a01d b33e 5264 35be 7f5b 443e 4142 cd3d
00000240: 48d5 a83e d099 b8bd 90d7 d9bd 1def 90be
00000250: 2278 8bbe 8b47 84bd e590 143d 0738 b7be
00000260: aabf 0bbe 98cd 2cbe d09a 35bd e646 b43e
00000270: 5410 933e b59b 6fbe 332b 86bd cd0f 9ebd
00000280: 35bd 4a3e aceb b23e 79ef f53d 33b3 0e3e
00000290: d52d a2be aca0 04be 604b 1a3e 4d33 5c3d
000002a0: 3035 813e 8420 27be cc41 dabd 24ea 453e
000002b0: 9373 4ebe f47f 55bd 44f8 2fbd 4d5a 0f3d
000002c0: 223f babc a171 5c3d ee33 b93d 468f a3be
000002d0: 2323 383e e759 0e3d 0b80 d7bd 8ad5 56bc
000002e0: b229 b5be 311c aabe 32af 2cbd c41d aa3e
000002f0: 75e1 0dbd be0f 283e c565 45bd c030 9fbe
00000300: e8e8 883c f692 09be c108 313e daa3 b23e
00000310: 2211 6abd 19f7 853e d90c 73be 7d25 38be
00000320: 5cc3 57be 0ca6 0cbe 28dd e93d e3ba 843e
00000330: 0b60 943e 3bf7 0a3e 9211 a63b f7b6 843e
00000340: a568 92bd 0c40 a9be d590 ca3d 8b8a 04be
00000350: 8cad 833d f09e c13d 3440 583e cde5 b53e
00000360: 500b a13e 6525 9ebe 1036 6a3e 2995 0e3e
00000370: 0871 f6bd 08b6 693e 4342 4bbe 2bec 69be
00000380: c0b7 ee3d 1091 96be 8161 633c 5913 3d3e
00000390: a54e 5bbe 3924 703e 66d6 3bbe a955 0f3e
000003a0: 7b7d 16be 423a a9bd 52f4 adbe 3060 57be
000003b0: 76b8 3e3e b4dd 5fbe f57a 76be 3172 9dbe
000003c0: babc 3dbe efc7 a3be e686 bfbe 3c47 f83d
000003d0: ce8f 823e 08d5 e83c 2fd4 443e 5c40 193e
000003e0: 5145 a93e a696 e1bd 8228 383e a053 e0bd
000003f0: ed19 2f3e d5ca 8d3e 4abb 073d 5cea 85be
0.25577205 -0.13639317 -0.271563 0.07905272 0.3042385 0.037529886 0.2869861 -0.25578162
-0.09389879 -0.0035982917 0.3052655 0.082090005 0.3252454 0.17924726 -0.09642272 -0.027780008
-0.11657935 0.02808499 0.08509023 -0.29938242 0.22089246 -0.047984 -0.2202713 0.30412883
-0.26206008 0.013883854 -0.06774716 -0.3095232 -0.3193035 -0.18021658 -0.25672162 0.036444247
0.097782485 -0.0011935275 -0.13848567 0.31862256 -0.13778822 -0.20250776 0.014578163 0.13457426
0.2825032 0.1524242 0.06887698 -0.16382223 -0.091148 -0.09825066 0.21742655 -0.09209895
0.27024448 -0.24902724 0.13598032 0.041400276 0.18144962 0.33142594 -0.24131504 0.26881704
0.07507838 0.33722958 -0.28507063 -0.051757667 -0.008503677 0.35205033 0.29741088 0.3383941
0.15019235 -0.03493719 0.121692166 -0.14019889 0.19132276 0.33242038 -0.2255885 -0.31854105
-0.19339453 -0.011046971 0.14688455 0.025814392 -0.34680235 -0.27364573 -0.2991604 0.20217536
0.2684369 0.061959073 -0.3064916 0.18751335 0.2857692 -0.18393917 -0.22758947 -0.3164892
-0.3295957 0.07711203 -0.055378143 -0.16587108 -0.106796265 -0.28150365 -0.056770705 -0.0033941627
-0.1120059 -0.051987033 0.3205435 0.34193224 0.2929473 -0.3183096 -0.2582185 -0.3533038
0.25802004 -0.11933382 -0.31771517 0.30792406 0.11094194 -0.15707506 0.27719986 -0.058060557
-0.25729442 0.29667076 -0.02666809 -0.018026045 0.28839847 0.35124975 -0.29166317 0.22544008
-0.20101947 -0.25221708 -0.22289526 -0.09596084 -0.31879398 -0.2261771 0.22221288 0.13353416
0.19317819 -0.2972645 0.29342726 0.095482975 0.08522099 0.016182143 -0.08494808 0.15107124
0.32036597 -0.0678508 0.013880142 -0.029396646 0.3498354 -0.1771405 0.19175528 0.100224026
0.3297522 -0.090137124 -0.106368184 -0.2830743 -0.27240092 -0.06458958 0.036270995 -0.35784933
-0.13647333 -0.16875303 -0.044337094 0.3521034 0.28723395 -0.23399241 -0.06551208 -0.077178575
0.19798739 0.34945428 0.120085664 0.13935547 -0.31675592 -0.12951916 0.15067816 0.05375986
0.2523589 -0.16320997 -0.10657081 0.19327599 -0.20161276 -0.05212398 -0.042961374 0.034998227
-0.022735182 0.053819302 0.09043108 -0.31945246 0.17982154 0.034753706 -0.10522469 -0.013112435
-0.35383373 -0.33224633 -0.042159267 0.33225834 -0.03463884 0.16412255 -0.048192758 -0.3109188
0.01671262 -0.13434967 0.17288496 0.34890634 -0.057145245 0.26165083 -0.2373537 -0.1798305
-0.21070617 -0.13735217 0.11419135 0.25923833 0.28979525 0.13570873 0.0050680125 0.2592084
-0.071488656 -0.33056676 0.09890906 -0.12943475 0.06429586 0.09454143 0.21118242 0.35526887
0.31453943 -0.30887905 0.22872186 0.13924088 -0.12033278 0.22823346 -0.19849496 -0.22843997
0.11656141 -0.2940755 0.013878227 0.18464412 -0.2141672 0.23451318 -0.18343505 0.1399752
-0.14696305 -0.08263065 -0.33975464 -0.21032786 0.18625054 -0.21861917 -0.24070342 -0.30751184
-0.18529025 -0.31988475 -0.37407607 0.12122962 0.2550034 0.028421894 0.19221567 0.14965957
0.33060697 -0.11015062 0.17984203 -0.1095345 0.17099734 0.2769381 0.033137597 -0.26155365

bn2.weight f4 [32]
00000000: 0fbc 823f c76e 7e3f 91ea 7f3f d038 833f
00000010: b8df 803f 1d39 803f 84b2 7f3f f1a7 793f
00000020: 807d 803f 6f31 823f 2504 7f3f 3ecb 813f
00000030: 9450 813f 0180 7d3f f1c3 803f 0dda 7f3f
00000040: ff3e 7d3f e587 813f 757d 7e3f f091 7c3f
00000050: e532 813f ff10 7f3f d837 7c3f 5b51 803f
00000060: d41f 823f 36ba 7d3f 129c 7d3f 859f 813f
00000070: 10c7 823f 71a9 7f3f d9b6 7d3f a403 793f
1.0213641 0.9938778 0.99967295 1.0251713 1.0068274 1.001743 0.9988177 0.97521883
1.00383 1.0171336 0.996157 1.014015 1.0102715 0.99023443 1.0059797 0.99942094
0.9892425 1.0119597 0.9941018 0.9866018 1.0093657 0.9963531 0.9852271 1.0024828
1.0165963 0.9911226 0.9906627 1.0126806 1.0216999 0.9986792 0.9910713 0.9727118

bn2.bias f4 [32]
00000000: 346a 113d 6af3 fcbb 5923 293c a2be 64bc
00000010: e645 a53b 0040 6fbc 5527 a33c 5475 1fbc
00000020: d89a b13b ab11 51bc f025 d4bc 902c 263d
00000030: 9a64 fcbc f744 3cbb b920 ec3c ef47 3a3a
00000040: 35c0 30bd 3573 033d 14de 01bc 45cb b2bc
00000050: 41de 42bc cb84 243c 8ba2 36bc 4543 8dbb
00000060: 380e 663b 0c0d a63b fb33 5fbc b787 6fbc
00000070: 5ae8 183d 610e ca3c bffb dcba cc38 0ebd
0.035501674 -0.007719447 0.010323369 -0.013961466 0.005043733 -0.014602661 0.019916216 -0.009732563
0.00542007 -0.01276056 -0.025896996 0.04056984 -0.03080969 -0.002872763 0.028824197 0.0007106056
-0.043152053 0.03209229 -0.007926483 -0.021825442 -0.01189381 0.010041426 -0.011147152 -0.0043109977
0.003510369 0.0050674733 -0.013623233 -0.014619759 0.037330963 0.02466506 -0.0016859694 -0.034722134

bn2.running_mean f4 [32]
00000000: 802c be3e 3e3a 14bf df70 313e 70ea 2c3f
00000010: 14d5 acbe bc15 f5be e6f8 9d3d e146 2dbe
00000020: b29c ea3e c635 c9be 4b7e 463e 20b0 a1be
00000030: 17fc a43e 3e8d 393e 56dc 0abf b66b 363e
00000040: 0f1c a63e 714e 283f 2e89 fdbe 5817 883e
00000050: 8cfc 94bd 32b2 c8be bd01 2cbe cfa7 d33e
00000060: 60d1 86be 6ade 7cbe 6186 233e 4b71 2dbd
00000070: 86de a33c db2e c4be e27f f1ba 6bdd 71be
0.37143326 -0.5790137 0.17328213 0.67545223 -0.33756316 -0.47868145 0.07713489 -0.1692157
0.45822674 -0.39298838 0.19384114 -0.31579685 0.3222358 0.18120286 -0.54242456 0.17814526
0.32443282 0.6574469 -0.49518722 0.2658031 -0.07274732 -0.39198452 -0.16797538 0.41338965
-0.26331615 -0.24694219 0.1596923 -0.042344373 0.020003568 -0.38316998 -0.0018424953 -0.2361962

bn2.running_var f4 [32]
00000000: ec59 a63e 0578 f73e 6633 293e ec22 1b3e
00000010: 2115 753e 7ae6 733e 89f0 9d3e d0b0 043e
00000020: f591 093e 27d5 313d 8867 5e3e a0b9 4e3e
00000030: b014 b83d 885b 113e 1647 643e a813 ea3e
00000040: 5d03 153e 7a0e 9a3e f81c 833e c45e a73d
00000050: 9957 0f3d 5098 593e b828 7d3d d810 a13e
00000060: 57a8 8d3d 6a74 603e 4d94 713e 3e05 9a3d
00000070: 0208 ad3d c42e bc3d e36b da3d 9286 b93d
0.3249048 0.48333755 0.16523513 0.1515004 0.23933841 0.23818389 0.30847576 0.12958074
0.13434584 0.04341617 0.21719182 0.20187998 0.08988321 0.14195073 0.22292742 0.45718122
0.14552064 0.3008917 0.2560804 0.08172372 0.03499565 0.21249509 0.06180641 0.31458163
0.06916874 0.21919408 0.23591729 0.07520531 0.08448793 0.09188607 0.10665109 0.090588704

conv3.bias f4 [48]
00000000: 1fb2 a739 bc12 d0bb 7c25 ef3b 6ed9 bdbb
00000010: d6b9 90ba 2611 c3bb 1ad6 f43b bc84 9f3c
00000020: bc1f 673c efd1 1e3b 978a d73b c81b e03b
00000030: dcb4 9cbc 8a02 ecbb 1afe 7dbb 2051 55bc
00000040: 90fc cc3c 34f3 dc3c 65ec 523c 6d53 883c
00000050: 128f cc3c fb5b 06bd e114 ce3c 3e4b 2ebb
00000060: a147 083c d773 02bc e914 8b3c 859c eebb
00000070: 12fb 6ebb 48e9 c5bc 1f3f d73b 9870 a33b
00000080: f60e a53c ef01 113b 8410 2cbc e658 b7bb
00000090: 7289 5dbb 8068 e03c ab2a 95bc 50e5 7b3a
000000a0: dd4e 903c ed43 18bc 9cf8 07bc de3f 0b3c
000000b0: 9e67 00bd daa3 6abc e65a 823c 380f 423c
0.00031985433 -0.0063498896 0.0072981697 -0.005793742 -0.0011041712 -0.005952972 0.007471812 0.019472472
0.014106687 0.0024234017 0.0065778005 0.0068392493 -0.01912921 -0.007202451 -0.0038756193 -0.01301983
0.025022775 0.026971437 0.012873744 0.016641343 0.024970565 -0.032802563 0.02515644 -0.002659514
0.008317859 -0.007962189 0.016977744 -0.007281842 -0.0036465568 -0.024159089 0.006568804 0.0049877875
0.020148735 0.0022126397 -0.0105019845 -0.0055953143 -0.0033803848 0.02739358 -0.018208822 0.00096090604
0.01761573 -0.0092935385 -0.008299019 0.008499114 -0.031348817 -0.014321292 0.015912484 0.011844449

conv3.lin.weight f4 [48, 32]
00000000: e252 b1bd 8564 0a3d 1ce7 b13d e7e3 06bd
00000010: 53ef 6abe a58b 313e c3e9 733e e578 2a3e
00000020: 141a 093e 8ef8 c23d e44b 3a3e f2e4 49be
00000030: 75ee 9b3e c87d e03d 25d8 2bbd 407f 8d3c
00000040: e649 413e 1595 18be 6868 113e 35d5 4f3e
00000050: 7083 763d cf11 f33d 5207 523d 9bcd 7fbe
00000060: 44db 4abe a86e 1abe 38db f93d 76a1 aebd
00000070: ca79 8c3e 8a31 7cbc 1ba9 f5bd 63db 3f3e
00000080: 6e35 94be 8324 24be f1ca 41be abf8 083e
00000090: bf49 ddbd 33dc 4abe a3c6 043c 76e3 39bd
000000a0: 2cf0 88bd 2e85 1dbe 8935 17be fa2c 8fbe
000000b0: 81af 46be e092 2dbe ec73 873d 52a2 07be
000000c0: 77b1 cd3d 7482 71be 0e5a 1c3e 2a2d c1bd
000000d0: a6a7 343d 31f5 90bd b47c 4abe c9ea 813e
000000e0: 7c1a c63d c9a3 883e 3756 84bc 9f94 11be
000000f0: 75ea 11be 1a5f 85bd f210 dabd 5aa6 0b3e
00000100: 3eec 9c3c 6fee 01be b077 dd3d 4750 c3bd
00000110: 0b6e 3b3e 69a5 75be 65a0 7cbd 6674 273e
00000120: f96c 8cbe 5c0e 47be 74be 13be 0417 03be
00000130: b00a 1a3e 8480 56be 49f8 f7bd c546 893e
00000140: 2d09 003e da13 62be 45f2 5cbd e6be 4abd
00000150: 04a4 8a3e 5994 593d b042 41be 3e93 653e
00000160: 3402 28be be96 72bc cb6a 853e 0200 633d
00000170: 7a57 7a3e 1fe0 823e fc65 723e d084 6c3e
00000180: 0265 03be f0a4 20bd e50d bfbd ef0f 623e
00000190: b42b 863c 41f5 333d 9da2 813e bd04 353e
000001a0: 0c11 6cbe 84c9 da3d 4873 3a3d 1748 ac3c
000001b0: fa62 1ebe 73c4 74be 0f5e 41be 0952 f2bd
000001c0: 4c58 31bd 2a07 64be a185 843e d821 723e
000001d0: f474 8ebd b651 8fbe 941e 883d 917b f33d
000001e0: c9b6 363e 9450 69bd d05a 05be 4ec3 643e
000001f0: c2ef 38be 1f7e ac3d ade7 5bbd 4154 eabd
00000200: 8585 85be fc26 acbd 58e7 523e 6b14 c7bd
00000210: 78e2 833d 4701 2c3d bd1d 80bc dbe2 0fbe
00000220: 9faa 98ba 874a 13be 8d48 25be b895 82be
00000230: a29f 0fbe 2066 abbd 34fa 4d3b 13a7 adbd
00000240: 5d29 373e 9890 0a3d 15a0 4abe b72b 313e
00000250: b466 553e ea0c 593e e93d ee3d aa56 53bd
00000260: fccc a43d e55a 6b3e 18e0 39bd 07b4 b5bc
00000270: dbc5 a1bd a189 12be 0c15 0ebe 1fd3 123e
00000280: b2ef df3d d9e7 a93d 4a06 60bd ffca 37bd
00000290: 3d3a 113c 9536 033e 7f69 34be 1a4e 7e3d
000002a0: 0a92 d73d e355 f23d 71d1 64bc 75f9 3d3c
000002b0: 7e8e e43d b656 9e3c bd34 b9bd 4cff 223e
000002c0: e0d9 84be 5282 71bd 2e77 45be 71b5 65be
000002d0: 1795 f8bd ab82 22be 7f8a 5b3d ef73 febd
000002e0: a194 b3bd 60d7 45bd 5329 723e 5710 4f3e
000002f0: 122d 703e 5953 523e 9843 b03d de4a f33b
00000300: 76fd 85bc cbb4 30bd 8ba7 b33d e8b0 82be
00000310: 9a04 f0bd 1c4d 63be 95fe 5bbe 5d34 863e
00000320: 202d 473e fcd8 5fbe 8334 1cba 0f4d 093e
00000330: 00b5 05be 57c2 293c 1f54 bfbd 1146 ae3d
00000340: 31b4 2cbe 7135 e53d fba1 253e 23ee 4d3d
00000350: a6f3 14be b801 66be 9491 093e 605d c43d
00000360: 4a16 473e 01c8 d03d 8f08 1e3e 9622 d93b
00000370: 3639 88bc 41c4 643d 23ab 20bd 4da1 6c3e
00000380: 446c 77be e3d1 29bb b67b 8ebd 37b0 04bd
00000390: 919d 52bd 22f1 533e 44eb b7bd ef7f 3cbe
000003a0: 6665 13be d990 8cbd c6d0 e03d 5795 4dbd
000003b0: 9219 c1bd 2e1c de3d e98f 693e 9c1a 133e
000003c0: f589 bcbd 8505 463c d9fc 723e 115c 82bd
000003d0: d378 56be b609 4fbe 88c2 5c3e 20aa 69be
000003e0: 8425 74be c435 933e fa42 ad3c 7089 c13c
000003f0: b77d 49be a55e 08be 1d05 dd3d 8026 eebd
-0.08658387 0.03378727 0.08686659 -0.03293219 -0.22942857 0.17338426 0.23819642 0.1664768
0.13388854 0.09520064 0.18193012 -0.19716242 0.30455366 0.10961491 -0.04195418 0.017272592
0.18875846 -0.1490062 0.14199984 0.20296176 0.060183942 0.11868631 0.051276512 -0.24980776
-0.19810206 -0.15081275 0.12200016 -0.0852689 0.27436668 -0.01539267 -0.11995145 0.18736033
-0.28947014 -0.16029553 -0.18925072 0.1337611 -0.108050816 -0.19810562 0.008103999 -0.04538294
-0.06686434 -0.15382835 -0.14766516 -0.27964002 -0.19402887 -0.1695056 0.06613907 -0.13245514
0.10043614 -0.2358492 0.15268728 -0.094324425 0.044105195 -0.070780165 -0.19774133 0.2537444
0.0967302 0.26687458 -0.016154392 -0.1421685 -0.14249595 -0.0651228 -0.10647763 0.13637677
0.019155618 -0.12688611 0.10813844 -0.09536796 0.18303697 -0.2398888 -0.0616764 0.16352996
-0.2742689 -0.19439071 -0.14428121 -0.12801749 0.1504314 -0.20947462 -0.121079035 0.26811805
0.125035 -0.22077885 -0.053941984 -0.04949846 0.2707826 0.05311999 -0.18873096 0.2241945
-0.1640709 -0.014806448 0.2605804 0.05541993 0.24447432 0.25561616 0.23671716 0.23097539
-0.128315 -0.039219797 -0.09328822 0.2207639 0.016378261 0.043935064 0.25319377 0.17677589
-0.23053378 0.10682967 0.045520097 0.021030469 -0.15467444 -0.23903064 -0.18883537 -0.11832053
-0.043297097 -0.22268358 0.258832 0.23645723 -0.06955901 -0.27992028 0.06646457 0.11888803
0.17843165 -0.05696161 -0.13022923 0.22340128 -0.1806021 0.08422493 -0.05368774 -0.114418514
-0.2607843 -0.08405873 0.20596063 -0.09720691 0.0643968 0.041993406 -0.01563918 -0.14051382
-0.0011647529 -0.14383899 -0.16140957 -0.2550485 -0.14025739 -0.08369088 0.003142965 -0.084791325
0.17886873 0.0338293 -0.19787629 0.17301832 0.2083996 0.21196333 0.11632902 -0.05159632
0.0804691 0.22983892 -0.045379728 -0.02218057 -0.07899066 -0.14310314 -0.13875216 0.14338349
0.1093439 0.082961746 -0.054693498 -0.044871327 0.008863983 0.1281379 -0.17618369 0.062086202
0.105259016 0.11832788 -0.01396595 0.01159512 0.11159991 0.019328456 -0.09043262 0.159177
-0.25947475 -0.058962174 -0.19283745 -0.22432496 -0.12137812 -0.15870158 0.053598877 -0.12424456
-0.08768583 -0.0483011 0.23648576 0.20221077 0.23454693 0.20539607 0.086066425 0.0074246963
-0.016356211 -0.043141168 0.08772191 -0.25525594 -0.11719628 -0.22197384 -0.21483834 0.26211825
0.19450808 -0.21860117 -0.00059587526 0.13408302 -0.13057327 0.010361276 -0.09342217 0.08509458
-0.16865613 0.11191834 0.16175072 0.050275933 -0.1454607 -0.22461593 0.1343444 0.09588122
0.19442096 0.10194398 0.15432952 0.0066264374 -0.016628843 0.055851225 -0.03922571 0.23108406
-0.24162394 -0.0025912456 -0.0695719 -0.032394614 -0.0514198 0.20697454 -0.0898042 -0.18408178
-0.14394149 -0.06863565 0.109773204 -0.05019125 -0.09428705 0.108452186 0.22808804 0.1436562
-0.09206001 0.012086277 0.23729266 -0.063652165 -0.20944528 -0.20218548 0.21558583 -0.22818804
-0.23842436 0.28751957 0.021150101 0.023625106 -0.19676863 -0.13317354 0.10791991 -0.11628437

bn3.weight f4 [48]
00000000: 3136 803f 84fd 7d3f 4595 813f 171c 7e3f
00000010: 4f4f 783f 6486 803f 9e76 813f 6b95 823f
00000020: d1b7 833f 363f 843f 8402 7e3f 99f6 803f
00000030: f596 7b3f 8c0b 823f 39ad 843f 14d5 7b3f
00000040: 6233 803f 1b26 813f 0754 813f ec06 7e3f
00000050: 511d 783f 32c8 833f c8c1 7c3f d767 7e3f
00000060: bef4 7f3f fb63 823f 58cf 813f 0295 783f
00000070: 9408 833f c538 7d3f 24f1 7b3f b6e9 803f
00000080: f0c3 7a3f 16db 783f cac5 803f 85dc 813f
00000090: 1d33 803f 8383 7e3f 668a 833f 37f7 7c3f
000000a0: 139f 823f 5208 7d3f 872a 7b3f 5cdc 803f
000000b0: 114e 813f 62a4 793f c3f0 803f 1056 7e3f
1.0016538 0.9921496 1.0123678 0.9926161 0.96996015 1.0041013 1.0114324 1.0201849
1.0290471 1.033179 0.9922259 1.0075256 0.9827722 1.0159774 1.0365363 0.98372006
1.0015681 1.0089754 1.0103768 0.9922931 0.96919733 1.029547 0.98733187 0.993772
0.9998282 1.0186762 1.0141401 0.9710237 1.0236993 0.9891475 0.98414826 1.0071323
0.97955227 0.972093 1.006036 1.0145422 1.0015599 0.9941942 1.0276611 0.9881472
1.0204796 0.9884082 0.98111767 1.0067248 1.0101949 0.97516453 1.0073475 0.9935007

bn3.bias f4 [48]
00000000: 0d2c e8bc 3ffd 99bb 339d a73b ab45 80bc
00000010: c2bf 13bd 2e8b dc3b 756d 4c3c 70bd ab3c
00000020: 0432 153d cf21 053d a462 8a3c 6920 93bc
00000030: d7ba a0bc 6c9b 5c3d b2d4 a43c 6d3b 8abc
00000040: 8e9d 5abc 49d1 c439 95e9 aeba 7a8b a6bc
00000050: 0f65 40bd 4c1e f53c 91c5 a9bc 2c6e a0bb
00000060: dccb 9fbb 1539 463b 1b0d 233c e049 b1bc
00000070: 5db1 303b 8fe9 99ba 27b3 bebc b6ad 473c
00000080: 1d55 1dbc 7416 e4ba 5d93 0dbd 341e 08bd
00000090: 5cd8 353c 83dd d7ba 0c11 833c c46e 8bbc
000000a0: 2b6e 883c 4773 a6bc cb2e 77b8 3bdb c8bc
000000b0: 940b 79bc 5d63 4ebc 54f4 4c3c 2a15 ffbc
-0.028341318 -0.0046993787 0.005115175 -0.01565822 -0.036071546 0.0067304587 0.012477268 0.020964354
0.03642465 0.032502946 0.016892739 -0.01795979 -0.019620342 0.05385916 0.020120952 -0.01687404
-0.013343228 0.00037539963 -0.0013344759 -0.02033018 -0.046971377 0.029921673 -0.02072409 -0.004895946
-0.004876597 0.0030246426 0.009951855 -0.021641672 0.0026961186 -0.001174258 -0.023278786 0.012187412
-0.009602812 -0.0017401711 -0.034564365 -0.03323193 0.011098947 -0.0016469214 0.01599934 -0.01702059
0.016654095 -0.02031864 -5.893297e-05 -0.0245186 -0.015200514 -0.012596932 0.012509424 -0.031138021

bn3.running_mean f4 [48]
00000000: dc1f fe3e 1217 53bf ec83 503e 9cfb 0fbe
00000010: fec8 56be 77ef 023e dec4 903d ec9b 9bbe
00000020: bec9 c33e 0a5b a13d 2b6a a73e b873 98be
00000030: cc96 88be 32af 6bbd 1b5d 39be 3ff7 d9be
00000040: e1e3 6cbc 27df 23be e325 b6be 3867 8e3e
00000050: d97a 7e3f 5418 40be 0033 b93d 54a3 febe
00000060: 7dcd 6cbf 4ae2 973d bcc4 183d 176e 42bd
00000070: 853c d9be 5dcf d13d c348 193f b0f1 0bbe
00000080: 5f1b 0cbe ee85 3d3e 5274 eb3e ad53 353e
00000090: 4883 e03d be18 313d 0f7f ff3d b8cf b63e
000000a0: 825d 7fbe c011 a73c e4c5 6cbe c3b8 a53c
000000b0: 4cd5 c5be 3e75 293f c5fa 32be f501 903e
0.49633682 -0.8245708 0.20362824 -0.14060825 -0.2097511 0.12786661 0.070687994 -0.30392396
0.38239855 0.078786924 0.32698187 -0.29775786 -0.2667755 -0.057540126 -0.18101923 -0.42571446
-0.014458627 -0.16003095 -0.3557578 0.27813125 0.994062 -0.1875928 0.090429306 -0.49733984
-0.9250105 0.07416208 0.037296996 -0.04746827 -0.42428985 0.102446295 0.5987665 -0.13666415
-0.13682316 0.18508121 0.45987183 0.17707701 0.1096254 0.043236487 0.124754064 0.35705352
-0.24938014 0.020394206 -0.23122364 0.020229703 -0.38639295 0.6619452 -0.17478473 0.28126493

bn3.running_var f4 [48]
00000000: ab13 963e 36af d53e 4353 f23e 7424 b83d
00000010: 5e1a 6c3e 3444 9d3e f592 c03e 1c99 c43e
00000020: 27bc 8e3e 2848 323e 2416 993e c7e4 723d
00000030: f3ee 313e e4ea da3d c282 643e 5204 8c3e
00000040: 46ee fa3d 1d07 fa3e 5bd5 b63e d702 d63e
00000050: 904b d53e de7a 733e f494 063e d430 983e
00000060: 4460 433f ead7 053e 6e5c 983e 18bb b03e
00000070: 6cf4 073e e9a8 ac3e 3ad3 d53e e080 273f
00000080: e76a 2e3e 9b66 ac3e bc2c 0b3e 2ff6 6e3d
00000090: 8000 253f 9f07 163e 0c6f 113f ac02 073f
000000a0: dbae 013e 9791 853e dfac a43e 8783 c73e
000000b0: 3403 5c3e 8a09 8e3e 4f98 263f 4281 693e
0.2931188 0.41735238 0.4732915 0.08991328 0.23056933 0.30716097 0.3761212 0.38398063
0.27877924 0.17410338 0.29899704 0.05930021 0.17376308 0.10689333 0.22315505 0.27347046
0.12252478 0.48833552 0.35709652 0.41799042 0.41659212 0.23777339 0.13142759 0.29724753
0.76318765 0.13070646 0.29758018 0.3451774 0.13276833 0.33722618 0.41762716 0.6543102
0.17032968 0.33672032 0.13591284 0.058340248 0.6445389 0.14651345 0.5681007 0.5273845
0.12664358 0.2608764 0.3216314 0.38967535 0.21485597 0.27741653 0.65076154 0.22803214

conv4.bias f4 [64]
00000000: 2e78 aebc cd2a 35ba 82ec 5dbb d5bd d439
00000010: 424a 8abc 097c db3b 213d 64bb d048 8cba
00000020: 72df 323c a187 013b e938 3c3a 4ec2 9c3c
00000030: aa19 2c3c 2f97 62bc 3194 96bb 56ee ee3b
00000040: e19a 7d3a 3e9c e2bb ae4f 68bb 9226 55bc
00000050: 3c83 863a 9661 673b 5a1a 073c 1c99 f33a
00000060: fdd9 a73b 1716 bd3b af8a 04bc 1b75 54b9
00000070: 0375 a63b 4967 76bc a1fe 9a3b 9f2a 69bb
00000080: 1293 efba c488 323c 1856 83bc e125 89bb
00000090: 5bc1 493b 18bc 68ba 16cb 7abb 4432 833c
000000a0: 852f 71bc 5d92 6c3b 33d3 b2bb 55a2 a23b
000000b0: f883 233b d940 f3bb abeb 85bb 3a74 9cba
000000c0: 4a0f 0b3c 6e8a 55bb fcdf 383c 917d 003c
000000d0: e71f bc3b efdf febb 99aa 533c c70b e03a
000000e0: 1bb4 05bc 2c52 eabc 8e9c 02bc f52b b2bc
000000f0: 6ed0 31bc 8d3c 86bc 7b22 a7bb 7133 b0bb
-0.02129754 -0.000691098 -0.0033862893 0.00040577227 -0.016881112 0.0066981358 -0.0034826475 -0.0010702852
0.010917531 0.001976468 0.0007180111 0.01913562 0.010504166 -0.01382999 -0.0045953025 0.0072915955
0.0009674263 -0.006915598 -0.0035447883 -0.013009684 0.00102625 0.0035305968 0.008246029 0.0018585059
0.005122422 0.0057704556 -0.008089705 -0.0002026152 0.005079867 -0.015039274 0.004730061 -0.0035578383
-0.0018278083 0.010896865 -0.016032264 -0.0041854237 0.0030785415 -0.0008878126 -0.0038268021 0.01601518
-0.014720802 0.0036097982 -0.005457306 0.004963199 0.0024950486 -0.007423502 -0.0040869317 -0.0011936494
0.008487532 -0.0032583731 0.011283871 0.007842437 0.0057411077 -0.00777816 0.012919092 0.0017093354
-0.008160616 -0.028603636 -0.007971896 -0.021749476 -0.010852916 -0.016386295 -0.005100546 -0.005377226

conv4.lin.weight f4 [64, 48]
00000000: e4ca 35bd bf71 cbbd b71c 2c3c 354c a1bd
00000010: 73b8 ec3d baec 00be b90e 523e 3c8c 423e
00000020: 5b36 a5bd c375 a53d cd0a 0c3e 86bb b03d
00000030: 6cfa f13d 21b0 fc39 32ac c0bb 67bf 43be
00000040: 1bb3 283e 9332 7d3e 7133 29be 36f4 fd3b
00000050: e1ac 14be 0df7 493e 5610 f8bd 1890 47be
00000060: 26b9 ccbd 32d4 253d 1896 673e 6bf7 95bd
00000070: 5049 443d 1434 4d3e 81a4 a33d a0ac 5cbe
00000080: d579 3bbe 0de9 77bd 7675 11be 413d 1a3e
00000090: a486 cf3d 1a45 3dbd 17e4 623e 5b98 d2bd
000000a0: e3ae 253e 6ffa 3c3e cb0d a0bd f4d6 53be
000000b0: 6011 89bd 1a83 08be 9528 073e 727a dc3d
000000c0: c78b 793e 3a4e 1c3c 83da 193e c239 403e
000000d0: 06bc d43d 2cb7 06be ff8b d7bd decd b6bd
000000e0: fdc5 763e ee47 ad3d 524e e9bd 16c2 a5bd
000000f0: feef 31be 5526 423e cd98 37bd 35a1 483e
00000100: 6586 ca3c 1959 00be dc19 fdbc 776c febd
00000110: 9669 55be d3d5 85bd bb44 473e abcf 753d
00000120: ab70 b9bd 75a0 4cbe 0364 813e 6ca5 493e
00000130: 0951 22be d859 c4bd e77a 683e 7d26 dabd
00000140: fcdc 18be 2dc2 5bbe ae9c 333d 7886 2f3e
00000150: 4782 a83c 8faf b4bd 59df 3fbe 8bbb 59be
00000160: 9ad3 143e d665 1c3e b48a 8f3d af56 0d3e
00000170: bade a53d e409 2fbe c48a 493e 4b34 2e3d
00000180: 517f 0ebe c275 0cbd cc0d 1c3e 840e 5a3e
00000190: 8aae 66bd 7013 1fbe 74a6 00be af3e 083e
000001a0: 3518 0abd 4801 693e e894 f4bd 8a7f 47be
000001b0: d9e9 093e bca3 033e 1570 07be fb3a a5bd
000001c0: e35e 9f3d 80f5 2d3e ace8 8cbd e4d8 37be
000001d0: da2b e13c 5b6d 62be e187 503e 1506 44be
000001e0: db04 393d 1484 303e 3358 c33d c05d b2bd
000001f0: 3b4f 92bd 9e22 c9bc 53bd 303d f191 59be
00000200: e030 d43a e7bd 9f3d 267b 473e 5475 8f3d
00000210: 784d b63d fb99 46be 2da4 4d3d 181a e33d
00000220: a739 70bc 208b 5b3e d679 64be 4c10 5b3e
00000230: f024 333e d118 be3d d0c5 d7bd 080e 8ebc
00000240: 72cc 6a3e 8b7a 24be d9e6 1f3d 2c16 d1bd
00000250: 9d72 453e 976b 63bd 9460 9e3d 05dd 143d
00000260: 6822 8cbd 5fc2 c7bd 9ad6 0dbe 56d2 d83d
00000270: bccc fabd 7ae2 2c3e 19ff 2d3e 6cb0 0c3e
00000280: 9353 90bc 2e0d 2bbe cf10 2d3c 18b2 6e3e
00000290: 4b69 953d f2d7 e0bd 43af 2abe 266a 92bc
000002a0: d9e5 d73d 3598 41bd 8bb2 6bbd d27d 5b3d
000002b0: 10ea 79bd 1455 01be 03e3 ca3c 9b62 8f3d
000002c0: afcc 9c3c 0d65 043e 78e0 5bbe ee74 5abe
000002d0: 0632 cd3c f908 dd3d b965 483e 4382 8b3d
000002e0: e1c6 5a3e 964d 65bd 7bb3 e6bd fb6b 1dbe
000002f0: 46b0 873d a935 3a3d c43c 1b3d 5369 2e3e
00000300: 94ae 76be d8d3 f43d a13c d93d 39fe 67be
00000310: e4c0 cc3d a22e de3d ea54 5abe 34e8 f5bd
00000320: 66a6 3c3e 6e16 3b3d 4f17 d63d 9aa3 36be
00000330: 41a2 403e 30ca 7c3c a0a4 773e 499f c9bd
00000340: c813 7b3e fcaf 45bd 4e5c 583c 1369 60be
00000350: 0034 13be 6f9f 91bd 012a 713d 4828 c9ba
00000360: 4b05 fbbb 16bd 3fbe 95ce db3c 73ca 703e
00000370: acae 533e 941b 153e 0abc bcbc f430 61bd
00000380: 8d27 42bd 5cef 19bd a1cf bfbd 370c 33be
00000390: 1a9d c6bc b5fe 313e e993 713e c238 c2bd
000003a0: e663 623e 6551 1f3e 23da 0fbe c549 9ebd
000003b0: 307d b63d 6803 453e fc56 c4bd dcbb 403e
000003c0: bf8b 013e b8c1 24bd 6bf0 a8bd d725 233e
000003d0: 1ea3 603e 8729 f13b 68a2 4dbe 6635 5f3e
000003e0: 6786 b93b 6194 82bc e443 21be dadf 903c
000003f0: 9c13 f2bc d8ef ad3d 0b43 3d3e 1655 15be
-0.044382945 -0.09933805 0.010504893 -0.078758635 0.115586184 -0.12590304 0.20513429 0.18998808
-0.08067008 0.08079102 0.13675995 0.08629517 0.11815342 0.00048196412 -0.0058799023 -0.19115983
0.16474573 0.24726324 -0.1652353 0.0077500595 -0.14519073 0.19723149 -0.12112491 -0.19488561
-0.09996252 0.04048557 0.2261585 -0.07322582 0.04792148 0.20039397 0.07990361 -0.21550226
-0.18308194 -0.06052499 -0.14204964 0.15062429 0.101331025 -0.04620848 0.22157322 -0.10282966
0.16179995 0.18454908 -0.07815131 -0.20687467 -0.06692767 -0.13331261 0.13199075 0.10765542
0.24369727 0.009540135 0.15024762 0.18772033 0.10387425 -0.13155812 -0.10524749 -0.08925985
0.24098964 0.08460985 -0.113918915 -0.080936596 -0.17376706 0.18959935 -0.044823457 0.19592746
0.024722287 -0.12533988 -0.03089612 -0.12423032 -0.20841059 -0.06534924 0.19459812 0.0600125
-0.09054693 -0.19983084 0.25271615 0.1969201 -0.15851225 -0.09587449 0.22703134 -0.10651872
-0.14928049 -0.21460791 0.043850593 0.1714114 0.020569934 -0.08822548 -0.18737544 -0.21262948
0.14533845 0.15273222 0.070088774 0.13802598 0.08099122 -0.17093617 0.19681841 0.04253034
-0.13915755 -0.03429199 0.15239638 0.212946 -0.056318797 -0.15534759 -0.12563497 0.13305162
-0.033714492 0.22754395 -0.11942464 -0.19482246 0.13468112 0.12855428 -0.1322635 -0.0806789
0.0778177 0.16988182 -0.06880316 -0.17953831 0.02748673 -0.22112028 0.20364334 -0.19142945
0.045170646 0.17237884 0.09538307 -0.08709288 -0.07144018 -0.02455264 0.043149304 -0.21247078
0.0016188882 0.07799893 0.19480571 0.070048004 0.08901495 -0.19394676 0.0502054 0.11088961
-0.014662183 0.2143979 -0.22312102 0.21392936 0.1749456 0.09282077 -0.105357766 -0.017340675
0.22929552 -0.16062371 0.039038513 -0.10209307 0.19282003 -0.055522528 0.077332646 0.036343593
-0.068425 -0.0975387 -0.13851395 0.105869934 -0.12246081 0.16883269 0.16991843 0.13739175
-0.017617976 -0.16704246 0.0105630895 0.23310125 0.07295474 -0.10978688 -0.1666842 -0.017872881
0.10541887 -0.047264297 -0.05754332 0.05358679 -0.061014235 -0.12630111 0.02476645 0.070012294
0.01914057 0.12929173 -0.21472347 -0.21333668 0.025048267 0.10792727 0.19570054 0.06811955
0.21364929 -0.055982195 -0.11264702 -0.15373223 0.06625418 0.04546133 0.037899747 0.17032366
-0.24090034 0.119544685 0.10607267 -0.22655572 0.099977285 0.10848738 -0.21321455 -0.1200718
0.18422851 0.045675687 0.104536645 -0.17835847 0.18811895 0.015429065 0.24183893 -0.09844834
0.24519265 -0.048263535 0.013205601 -0.21915083 -0.14375305 -0.07110488 0.05887795 -0.0015347088
-0.007660543 -0.18724474 0.026831904 0.23514728 0.20672101 0.14561301 -0.023038883 -0.054978326
-0.047401 -0.037581787 -0.09365774 -0.17485128 -0.024244834 0.1738232 0.2359158 -0.09483482
0.2210842 0.15558393 -0.14048056 -0.07728914 0.08910596 0.1923958 -0.095869035 0.18821663
0.12650965 -0.040223807 -0.08248981 0.15932404 0.21937224 0.007359687 -0.20081484 0.21797714
0.005661774 -0.015939893 -0.15748554 0.017684866 -0.029550366 0.08493012 0.18482606 -0.14583239

bn4.weight f4 [64]
00000000: d139 7c3f 3fa7 7b3f 6cfe 7f3f f61a 813f
00000010: 63cd 823f 9f93 833f aa32 793f 34e7 7f3f
00000020: 01ea 7b3f 7612 7f3f 52d5 7e3f 37ab 773f
00000030: a9c2 793f eecb 7e3f 841c 7e3f a546 803f
00000040: 3ab2 7c3f aaa7 803f facd 7c3f a5bf 793f
00000050: 2b5d 803f 7d06 7c3f 0932 813f cdc9 7b3f
00000060: f7a3 7e3f a2b1 7e3f 08fb 823f e61a 823f
00000070: bc93 813f 27bd 7e3f 651f 823f 9d5c 813f
00000080: 9d1f 773f 946e 7b3f fa73 7d3f e6b0 803f
00000090: 561d 823f b3db 7f3f 40f6 813f e081 7f3f
000000a0: b1ae 7e3f 0adb 833f a02f 833f ced4 803f
000000b0: cdac 7d3f 3171 7f3f 413a 7c3f 2670 813f
000000c0: 2800 7a3f 3341 7f3f c521 7c3f f75a 813f
000000d0: 8461 803f 2d46 823f e68f 833f 7504 803f
000000e0: 54d7 813f 7da0 843f 3556 823f b628 823f
000000f0: b39f 793f ca4e 803f dd59 803f 34ec 7e3f
0.9852572 0.9830207 0.9999759 1.0086353 1.0218929 1.0279425 0.9734293 0.9996216
0.98403937 0.99637544 0.9954425 0.9674563 0.9756265 0.9952992 0.9926226 1.0021559
0.9870945 1.0051167 0.98751795 0.9755805 1.0028433 0.984474 1.0093395 0.983548
0.9946894 0.99489796 1.0232859 1.0164459 1.012321 0.99507374 1.0165831 1.0106388
0.96532613 0.98215604 0.9900509 1.0053985 1.0165203 0.9994461 1.0153275 0.9980755
0.9948531 1.030122 1.0248909 1.0064943 0.990918 0.9978209 0.9852639 1.011235
0.9765649 0.9970886 0.9848903 1.0105885 1.002976 1.0177666 1.0278289 1.000136
1.0143838 1.0361477 1.0182558 1.0168674 0.97509307 1.0024045 1.0027424 0.9957917

bn4.bias f4 [64]
00000000: 85fb 1abd 337c 37bd 3859 cabb 6d05 973c
00000010: a314 413c 990d ef3b 577a 79bc 4a47 26bd
00000020: eb3f bd3b 4ee5 893a fd7e 04bd e70d babc
00000030: fc56 22bd 1d76 ec3b 544b debc dcde 2c3c
00000040: ca23 59bc c62b 163c 84ed a2bc 7daf 79bc
00000050: 59be 073a e076 4fbc 395c 6dbc 276d 71bc
00000060: c2d7 d2bc cacb 80bc 7b7f 8a3c a304 213c
00000070: dfb9 f53b 59a6 42bc c58f 4fbb 728a 2a3d
00000080: 43db f7bc d115 2dbb 99d3 43bc 32f1 643c
00000090: 1807 873c e7dc 843c 60d7 073c 5e2b 87bc
000000a0: ae7d 85bc 3770 6f3c e0ed a33b d6fc 753c
000000b0: 0e81 86ba ab99 f8bb 61d5 e7bc 5e01 7cb9
000000c0: 7718 12bd 76bb a9bb 3068 b13c 1e70 613c
000000d0: 4c8f 13bc 9f91 6e3b af19 ac3b b4a7 8c3c
000000e0: 6186 803c d166 45bc eebd 0d3d 809b 663c
000000f0: 1acb 60bc e718 2bbc d050 1dbb 5a72 1c3d
-0.037837524 -0.04479618 -0.0061751865 0.018435204 0.011784705 0.007295322 -0.015226922 -0.04059533
0.005775442 0.0010520609 -0.032347668 -0.022711707 -0.039633736 0.0072162286 -0.027135529 0.010551181
-0.013253162 0.00916571 -0.019888647 -0.015239594 0.00051782053 -0.012662619 -0.01448732 -0.014735497
-0.025737647 -0.015722174 0.01690649 0.009827766 0.007498964 -0.011880481 -0.0031671387 0.041635938
-0.03025592 -0.0026410709 -0.011952304 0.013973521 0.016482875 0.016218616 0.0082910955 -0.016500171
-0.01629528 0.014614156 0.005002722 0.015013894 -0.001026185 -0.007586678 -0.02829999 -0.00024033102
-0.035667863 -0.005179818 0.021656126 0.013759641 -0.009006333 0.0036402715 0.005252085 0.01716981
0.015689077 -0.012048439 0.03460496 0.01407516 -0.013720298 -0.010442949 -0.0024004467 0.03819499

bn4.running_mean f4 [64]
00000000: ef90 4c3e 9466 353e 5705 403e e1d5 563e
00000010: 1725 9e3e eb00 133e 94fb 1cbf 567c a93e
00000020: 5caf d0be 8d55 333e 5dfa 14bf 31c5 0a3f
00000030: 5fc1 4c3e b714 07bf 06d9 fb3d a4fc 76bd
00000040: 36ba d83e 0ea7 0e3e 9ccb 483f 82a0 97be
00000050: 7025 43be 5a12 f13e 2cb6 af3c 0365 b03e
00000060: 4737 58be ecae cf3d ebb5 1f3f d145 43bc
00000070: 4e77 55bf b4b7 e4be 92fd 7cbe 9e45 48bf
00000080: 430a 183e cf38 8abe d99e 003e a3d8 03bf
00000090: 96d4 043f 9ffa 6f3f ec58 82bf 5dbf 393e
000000a0: 225b b7be 476c 833d e4e4 8cbd 1edd 7dbe
000000b0: 61d5 ef3e 241c 72bf fd4b 563e 8dae 00bf
000000c0: 105a 1c3f 5026 033e 650b 82bd ec6a 21bf
000000d0: 0c41 7cbe bac0 71be a0dd fabd 9abb 2fbe
000000e0: 07a3 123f 8617 2d3e a70a 293e b1c0 513d
000000f0: 4185 53bf 933e 6d3d c300 323d 4f8e 543e
0.19977163 0.17714912 0.18752037 0.20980026 0.30887672 0.14355819 -0.6132138 0.33102673
-0.4075879 0.17513104 -0.58194524 0.5420714 0.1999564 -0.52765983 0.12297253 -0.06029953
0.42329568 0.13930914 0.78435683 -0.29614645 -0.1905725 0.47084314 0.021449171 0.34452066
-0.21114837 0.101407856 0.6238696 -0.011918501 -0.8338517 -0.44671404 -0.24706104 -0.7823123
0.14847665 -0.26996467 0.12560596 -0.51502436 0.5188688 0.9374179 -1.0183387 0.18139406
-0.35811716 0.06417137 -0.06879595 -0.24791381 0.46842483 -0.9457419 0.20927425 -0.50266343
0.61074924 0.12807584 -0.063498296 -0.63053775 -0.24634188 -0.23608676 -0.12249303 -0.17161408
0.5728001 0.16903505 0.1650797 0.051209155 -0.82625204 0.057921004 0.043457758 0.20757411

bn4.running_var f4 [64]
00000000: 6251 8e3e ae24 f83e 24bf 273f 7623 f73e
00000010: ec5d 4a3e 7a16 a03d 398a d33e 711e 653e
00000020: ba8d 1f3f 2e2a b63e 4a8f 3b3e 4d26 6b3e
00000030: 6e6b b03e 10c3 b83e 375f 6c3e b4cd 213f
00000040: 15aa 673e 8d7f 073f 2d49 c03e 6e4f 903e
00000050: 3105 ff3e c92a 493e 2713 d03e 461b 363f
00000060: aee5 603e f702 003f b59c 543e 796d 903e
00000070: 6923 633e 0975 c93e b5c5 173f f198 083f
00000080: bb8a 033f 7fab 163f bb80 413e fe82 df3e
00000090: 6e66 4b3e 229a 1d3f 5dcf 463e 88a4 463e
000000a0: fa86 df3d 672b f73e 4155 113f 4865 b33d
000000b0: 4a55 c83e b5fe 353e 9e29 6b3f 609e 233f
000000c0: 2544 953e 5c7a b53e 8c1e 6d3e 1914 ac3e
000000d0: 30ea a83e 5b36 183e 11ce e63d be8a 0f3e
000000e0: 1016 523e 38f8 213e d147 803e 65e8 d73e
000000f0: 8569 6c3e 1048 cc3e f9e6 893e dc57 da3e
0.27796465 0.48465484 0.6552603 0.48269242 0.19762391 0.07816787 0.41316393 0.22374894
0.6232563 0.35579056 0.18316379 0.2296383 0.34456962 0.3608632 0.23083197 0.63204503
0.22623475 0.52929 0.3755583 0.281856 0.49808648 0.19645227 0.40639612 0.71135366
0.21962616 0.50004524 0.20762904 0.2820852 0.22181477 0.39347103 0.5928605 0.5335837
0.5138356 0.5885543 0.18896763 0.43654627 0.19863293 0.61563313 0.1941504 0.19398701
0.109144166 0.482753 0.5677071 0.08759552 0.3912757 0.17772944 0.9186038 0.63913536
0.29153553 0.35444915 0.23156184 0.33609083 0.3299117 0.14864485 0.11269773 0.1401777
0.20516229 0.15817344 0.25054792 0.4216949 0.23087128 0.3989873 0.2693403 0.42645156

conv5.bias f4 [96]
00000000: 318b 26ba dc86 bcbc 2d86 04b9 7523 adbb
00000010: 5be2 003b 6339 f33b 9427 b1ba ce68 a2bb
00000020: baf1 58ba e5ba 41bc 4656 b1bc 9cba 76b9
00000030: 558c 2c3c 68d5 7bbb 9ffc 913a 2a08 b13b
00000040: c2e7 ebb9 5b7c 863b 6f51 febc c0af 123b
00000050: ac7c 203b 0af8 6e3c 9d27 0b3b 055b 413c
00000060: f8b1 503c e4c4 9a3c 59ba 853a fce9 1a3b
00000070: 74a8 653a 9afa 4bb9 8e0b b5bb 8d19 073a
00000080: cd04 65bb 8299 273b c1d3 92ba c2dd 6c3c
00000090: 78b9 feb9 2db6 c23a 5669 29bc e69c 263a
000000a0: c56d 5cb9 e8b2 c8bb 19dd d73b f456 203b
000000b0: e1be f3bb bf12 8539 3ea3 103b 4ce0 0bbb
000000c0: 9496 e2ba 2d1a 133b 7955 bdbb 47d5 283c
000000d0: cb06 513b 894c 6a3a 1fe9 cabb 1876 483c
000000e0: 57f7 fabb 8869 a1bb aebc bebb 9d96 f93b
000000f0: d863 0c3a 99cd b33b c121 3a3c a9ec 81bc
00000100: f025 09bc 55a2 933a 1798 e53c dd9e 343c
00000110: 8d6f c53a e2e2 8c3c f314 953c 3233 c93b
00000120: 2e60 743b 6058 2a3b b3fb f6ba 010a 473a
00000130: eb2b 87bb 03d9 4a3b b7e5 04bb 53fa 15bc
00000140: dd04 29b9 27d7 1739 4cf4 1e3a 75e6 a7bb
00000150: 30d7 05bc e6ac d83a 9524 35bb 1244 cc3b
00000160: c018 06bc 708d 613b a9be 84bb d364 bc39
00000170: 7f78 f7ba 5d28 8a3c 962d 1c3c 1b74 093c
-0.00063531386 -0.023013525 -0.00012638485 -0.005283768 0.0019666168 0.0074226125 -0.0013515824 -0.0049563413
-0.0008275766 -0.011824344 -0.021647584 -0.00023529906 0.010531505 -0.003842676 0.0011137909 0.0054025846
-0.00044995366 0.00410418 -0.03104469 0.0022382587 0.0024488373 0.014585504 0.0021233328 0.011801486
0.012737744 0.018892713 0.0010202631 0.0023638 0.0008760758 -0.00019452945 -0.005525059 0.00051536487
-0.0034945488 0.0025573676 -0.0011202024 0.014457168 -0.0004858484 0.0014855318 -0.010340055 0.0006355777
-0.00021021727 -0.006124843 0.006587636 0.002446589 -0.007438526 0.00025381704 0.0022069956 -0.0021343408
-0.0017287307 0.0022446022 -0.0057780114 0.0103047555 0.0031894918 0.0008937796 -0.006192341 0.012235187
-0.0076588797 -0.0049259104 -0.005820832 0.0076168315 0.0005355454 0.0054871556 0.011360587 -0.015859919
-0.008370861 0.0011263589 0.028026624 0.011024204 0.0015063152 0.01719803 0.018198466 0.006140136
0.0037288773 0.0025992617 -0.0018843323 0.0007592738 -0.0041251085 0.0030952103 -0.0020278522 -0.00915392
-0.00016118908 0.00014480633 0.0006063625 -0.005123908 -0.0081689805 0.001653102 -0.0027640213 0.0062337006
-0.008184612 0.0034416579 -0.004051049 0.00035933274 -0.0018880515 0.01686495 0.009532353 0.008389498

conv5.lin.weight f4 [96, 64]
00000000: 2c73 75bd 5835 21be c009 1a3e 7f8a ea3d
00000010: 4e02 e53d a991 99bd 248e 0ebd e647 803c
00000020: 3001 a7bc 2c4e 183d 38af f53d f6b8 09be
00000030: dd96 263e 6122 353e 4951 debb c4a3 5cbd
00000040: 4a5e 19be bbdb 16be 4fab debd 8e63 62bc
00000050: 677e 433d adac a9bc 892a 3a3e d2f4 ddbc
00000060: 1f45 1ebe 82ba e1bd 6983 843d a048 32bd
00000070: 18a3 523e d7bc 0dbe a729 47be 7638 05be
00000080: 5c37 273d 7d7d 6bbd da4c d73d 3dd0 163e
00000090: 1250 f2bd a00f d33d 640a d9bd 5cf4 88bd
000000a0: 7ed6 98bd 09c0 66bd 4ba3 10be db40 b03d
000000b0: b606 f2bd 43ba edbd 4102 1b3d 8779 6dbd
000000c0: 6e4a a0bc 94d2 ce3d 07ca bbbd a1c0 d3bb
000000d0: f7ef a33d 2574 dc3b 32e7 5fbd 8384 a73c
000000e0: de39 b9bd 528a 0f3e 5eb6 6ebd 4545 00bc
000000f0: 9526 373d 7d36 ccbc e15e e6bd 80a0 06be
00000100: c478 3a3e c57f a63d 0852 6a3d 4c10 15be
00000110: 209b 513c 36fd 273d 4a5a b43d f3f8 f33c
00000120: 1458 153e 93b3 75bd 0790 1a3c 9629 253e
00000130: f005 48be d1a5 1ebe 77c6 03be 65a3 24be
00000140: 65de 393e 5510 a1bd fb1b 523d 1cd8 0c3d
00000150: e550 a4bd b779 f13c 1e18 153e 81b9 39bd
00000160: f906 dabd 6f37 073e b886 fcbc 3ac5 10be
00000170: 152b 51be 9bfe 393e 1234 92bd 2e9b 393e
00000180: 95d6 2cbe f098 15be 57e3 41be d3f8 a53a
00000190: 2a61 573d dcd7 423d 63a6 45be fb8e cc3c
000001a0: 2535 363e 6a43 1dbe 4d88 fcbd 4549 e4bd
000001b0: ee73 b5bd 2168 55be 20a0 0a3d 849e 973d
000001c0: 4bec 913c d82e d73d 1d70 27bd 48ca 0bbe
000001d0: cd75 c7bd cca7 51be 389f c13b e408 11bd
000001e0: dcee a63d 07ed 993d ebb3 7b3d 3252 563e
000001f0: b54f 25be bbde 513e ff67 cf3d 34bf a4bd
00000200: 58eb 0c3e c8e3 453e 9320 9cbd 503e 453e
00000210: 4505 0d3d 506b ca3b 118b 0e3d fa59 f73d
00000220: b43f 2e3e ad55 023e d9f0 223e 9dbe 053e
00000230: 7701 c2bd 2c9a 433d 71d8 f5bd 0330 4e3e
00000240: 3d34 983d e3de ce3d af51 b53c 3cb6 2bbe
00000250: 5814 953d b782 c53d 417e 053c 8edb 6b3d
00000260: 7fc4 6ebd 147e b73b c004 443e f6f6 f33d
00000270: 7124 59be 2c1c a43c 0d7e 01be 87d1 173e
00000280: fc7d 243e 0654 a53d eecf bbbd d03d 623c
00000290: 4600 b5bd 9208 d83c b742 e23d fef7 783c
000002a0: 027f 023e d7bd 2dbe 80b8 89bd c217 903c
000002b0: df35 18be 98c7 fa3d ee4e 55bc 8796 88bd
000002c0: ad75 873c 617d 243e 707f 993b 8009 23be
000002d0: 7011 77bd 2e7f 153d fa2c 7fbd 5322 ccbd
000002e0: bd47 033e b0a3 9bbd 5294 c23d ebec 123e
000002f0: 799f 283e 8f62 1c3e 35dd c33c d7ce 3cbe
00000300: 6e10 a43d d85b afbd f441 1abe 9f09 183e
00000310: c7e2 9dbc c106 153e fd7f 203e d495 453e
00000320: 53c4 143e 1de9 bcbd fe25 00bd fba1 90bd
00000330: 8962 2abe 9d59 ed3d 0c26 a4bd cec5 36bd
00000340: 83e7 debd 67c8 dd3d 87b8 453e 0b50 783d
00000350: 8190 903b 7900 6d3d b72a 293e 52a1 19be
00000360: e2d4 17be e71a 023e 6993 483d 7bf5 e3bd
00000370: 5362 1ebc bd2a 1cbd c8a3 0b3e bb87 1abe
00000380: 2f7b 06be 2a8f 7cbd 3527 89bd 1f18 acbd
00000390: 6a67 ac3d bc02 2cbe 3d17 b63d 5566 b33d
000003a0: eeb3 7ebc f5d5 a3bd 4504 ca3d c04a 003e
000003b0: b51a c3bc 758f c53d 9194 483e 289d 62be
000003c0: 7aba 493e 2612 48be 5aba 84bd 38b0 19bc
000003d0: 1675 0d3e 9820 013e 8f1f e1bd e806 813d
000003e0: b6f6 01be d326 1dbe a84b 283e 9300 b0bd
000003f0: 0357 0ebd 79ba b5ba 192d 1fbe 54f3 e5bd
-0.05992429 -0.15743005 0.15042782 0.11452197 0.1118208 -0.074984856 -0.034803525 0.015659284
-0.020386308 0.037183926 0.11996311 -0.13449463 0.16268487 0.17688896 -0.0067845923 -0.053867117
-0.14977375 -0.14732258 -0.10872518 -0.013817681 0.04772797 -0.020712221 0.18180288 -0.027094278
-0.15456055 -0.11021902 0.06470377 -0.04352629 0.20570028 -0.13841568 -0.19449483 -0.1300982
0.04082428 -0.05749272 0.10512705 0.14727874 -0.118316785 0.103057146 -0.10597685 -0.06687233
-0.07462786 -0.056335483 -0.14124791 0.0860612 -0.11817686 -0.11607792 0.037843946 -0.057977226
-0.01956674 0.10098758 -0.09169393 -0.006462172 0.08004754 0.0067277127 -0.054663844 0.020448929
-0.090442404 0.14017609 -0.058279388 -0.007829015 0.04471453 -0.024928326 -0.112485655 -0.13147163
0.18210131 0.08129839 0.057207137 -0.14556998 0.012793332 0.041012965 0.08806284 0.029781794
0.1458438 -0.05998571 0.009433753 0.16129145 -0.19533515 -0.15492941 -0.12868677 -0.16077955
0.18151243 -0.07864443 0.051296216 0.034385785 -0.08023242 0.029476983 0.14559981 -0.045342926
-0.10645861 0.1320474 -0.030825958 -0.14137736 -0.2042659 0.1816353 -0.07138838 0.18125603
-0.16878732 -0.14609122 -0.1893438 0.0012662656 0.052582897 0.04756914 -0.19301753 0.024970522
0.1779371 -0.15357748 -0.12330685 -0.111467876 -0.088600025 -0.20840503 0.033844113 0.07403281
0.017812869 0.105069816 -0.040878404 -0.13651383 -0.097392656 -0.20474166 0.005908873 -0.03540887
0.081510276 0.075159125 0.06145088 0.20929793 -0.16143687 0.20495121 0.101272576 -0.080442816
0.13761652 0.19325173 -0.076234005 0.19262052 0.034428854 0.0061773434 0.034800593 0.120777085
0.17016488 0.12727995 0.15912189 0.13060994 -0.09472936 0.04775445 -0.120041735 0.20135503
0.07431839 0.10101106 0.022133676 -0.16768736 0.07279271 0.096440725 0.008147777 0.05758243
-0.058292862 0.0055997465 0.19142437 0.119123384 -0.21205308 0.020032965 -0.12645741 0.14826022
0.16063684 0.08072667 -0.09170519 0.013808683 -0.08837943 0.026371274 0.11047881 0.015195845
0.12743762 -0.1696695 -0.06724644 0.017589454 -0.148643 0.12245101 -0.013019307 -0.06669336
0.016535604 0.16063453 0.004684381 -0.15921593 -0.060319364 0.03649824 -0.062298752 -0.09967484
0.12820335 -0.0759958 0.09500946 0.1434819 0.16467084 0.15271972 0.02390919 -0.18438278
0.08010946 -0.0856244 -0.15064222 0.1484742 -0.019273175 0.14553358 0.15673824 0.19295436
0.14528017 -0.0922415 -0.031286232 -0.07062145 -0.1663915 0.11589358 -0.08015069 -0.044622235
-0.10884001 0.10829239 0.19308673 0.06062321 0.0044117575 0.05786178 0.165202 -0.15002945
-0.14827302 0.12705575 0.048968706 -0.11130806 -0.009666997 -0.038126696 0.13636696 -0.1509084
-0.13132928 -0.06165997 -0.06696931 -0.08403038 0.08418162 -0.16797918 0.08891151 0.08759753
-0.015545828 -0.079997934 0.098640956 0.12528515 -0.023816446 0.09646503 0.19587924 -0.22130263
0.19700041 -0.19538173 -0.06480856 -0.009380393 0.13814196 0.1261009 -0.109923474 0.063001454
-0.12691769 -0.15346842 0.1643511 -0.085938595 -0.03475095 -0.0013864777 -0.15544547 -0.11228052

bn5.weight f4 [96]
00000000: 579a 7e3f 23e8 7d3f bba2 823f 216e 7e3f
00000010: d38a 7a3f 7348 823f d9c8 803f 1f7a 7d3f
00000020: a68c 763f 3297 813f d639 833f 8c59 793f
00000030: bb05 813f 1d8a 7b3f 604e 7f3f 5bd7 813f
00000040: d405 813f 56ef 773f c8c0 803f caf8 7c3f
00000050: c778 7d3f 561b 813f ba1d 7f3f 0e9b 7a3f
00000060: 141d 7e3f 3091 813f e302 7d3f 641d 813f
00000070: 2e59 793f 74a2 7b3f 4daf 7e3f 1cab 803f
00000080: cf76 743f f4b7 7d3f 00e8 833f d20b 813f
00000090: ec21 7c3f a485 7d3f 2341 7f3f e753 7d3f
000000a0: b571 7f3f 0f89 803f 89ed 7b3f c81c 813f
000000b0: bbaf 7b3f 3763 7e3f 8849 7f3f 0cad 803f
000000c0: eac0 7b3f 230a 803f bad5 7e3f 441d 7b3f
000000d0: c0a2 833f dfb4 773f 91f9 7b3f 15bb 773f
000000e0: eb5e 7e3f 2cf2 813f c166 803f 338a 7b3f
000000f0: 1d77 803f e291 813f 428b 7e3f cd04 7e3f
00000100: 0c1a 7b3f 8d99 813f 565e 833f 03e2 833f
00000110: 6369 833f 8536 853f 579b 833f 0b9c 7e3f
00000120: 4295 813f 9ea9 7e3f e2e8 813f 7be0 7a3f
00000130: 4382 823f 80b0 7a3f 5c7a 823f 973d 853f
00000140: 3a66 783f d5cb 7d3f 6c83 7e3f 2e6f 813f
00000150: d376 833f 4178 7f3f cb08 823f af8d 7d3f
00000160: d2de 773f b6c0 863f f322 7d3f 2c84 783f
00000170: 2a1c 7c3f efbe 7d3f 4c29 7a3f 4aab 823f
0.99454254 0.9918234 1.0205911 0.99386793 0.9786808 1.017836 1.0061294 0.99014467
0.9630836 1.0124266 1.0252025 0.9740226 1.0079874 0.9825762 0.99728966 1.0143846
1.0079904 0.9684957 1.0058832 0.9881712 0.99012417 1.0086467 0.99654734 0.97892845
0.9926312 1.0122433 0.9883253 1.0087094 0.974017 0.9829476 0.9948624 1.0052218
0.9549379 0.99108815 1.0305176 1.0081732 0.9848926 0.99032044 0.99708766 0.9895615
0.9978288 1.0041827 0.98409325 1.0086908 0.9831502 0.9937014 0.99721575 1.005281
0.9834124 1.0003093 0.9954487 0.9809153 1.0284042 0.9676036 0.98427683 0.9676984
0.99363583 1.015203 1.0031358 0.9825775 1.003635 1.0122645 0.9943124 0.99226075
0.9808662 1.0124985 1.0263164 1.0303348 1.0266536 1.0407263 1.0281781 0.9945685
1.0123675 0.99477565 1.0149195 0.9799878 1.0196003 0.9792557 1.0193591 1.0409421
0.97030985 0.9913915 0.99419284 1.0112054 1.0270637 0.9979287 1.0158933 0.99044317
0.9682437 1.0527561 0.98881453 0.9707668 0.98480475 0.99119467 0.97719264 1.0208523
